…
puts with 2 spatial dimensions, a channel dimension, and an optional batch dimension (i.e. 3D or 4D inputs).
  warnings.warn(warn_msg)
Dataset Name: FashionMNIST
Attack Method: Backdoor
Defense Method: MaxPoolSample
IID: True
Alpha: 10
Given Size: 4096
backdoor attack:  True
poisoned data portion in each client:  0.5
target label:  0
comprised_client_idx:  range(0, 20)
read_dir:  ~/processed_data/FashionMNIST_iid-True_numclients-20_backdoor-True_poisonedclientsportion-0.4_poisoneddataportion-0.5/
Number of GPUs available: 4
Using GPU: 1
global_model:  FashionCNN(
  (layer1): Sequential(
    (0): Conv2d(1, 32, kernel_size=(3, 3), stride=(1, 1), padding=(1, 1))
    (1): ReLU()
    (2): MaxPool2d(kernel_size=2, stride=2, padding=0, dilation=1, ceil_mode=False)
  )
  (layer2): Sequential(
    (0): Conv2d(32, 64, kernel_size=(3, 3), stride=(1, 1))
    (1): ReLU()
    (2): MaxPool2d(kernel_size=2, stride=2, padding=0, dilation=1, ceil_mode=False)
  )
  (drop): Dropout2d(p=0.25, inplace=False)
  (fc1): Linear(in_features=2304, out_features=600, bias=True)
  (fc2): Linear(in_features=600, out_features=120, bias=True)
  (fc3): Linear(in_features=120, out_features=10, bias=True)
)
Number of trainable parameters:  1475146
clients_images_list:  20
clients_images_list[0]:  (3000, 1, 28, 28) <class 'numpy.ndarray'>
clients_images_list[0][0] (1, 28, 28) <class 'numpy.ndarray'>
Client0 dataset size: 3000
Client1 dataset size: 3000
Client2 dataset size: 3000
Client3 dataset size: 3000
Client4 dataset size: 3000
Client5 dataset size: 3000
…
/scratch/wenjie/anaconda3/envs/fedllm/lib/python3.10/site-packages/torch/autograd/graph.py:744: UserWarning: Plan failed with a cudnnException: CUDNN_BACKEND_EXECUTION_PLAN_DESCRIPTOR: cudnnFinalize Descriptor Failed cudnn_status: CUDNN_STATUS_NOT_SUPPORTED (Triggered internally at ../aten/src/ATen/native/cudnn/Conv_v8.cpp:919.)
  return Variable._execution_engine.run_backward(  # Calls into the C++ engine to run the backward pass
Dataset Name: CIFAR10
Attack Method: Backdoor
Defense Method: MaxPoolSample
IID: True
Alpha: 10
Given Size: 4096
backdoor attack:  True
poisoned data portion in each client:  0.5
target label:  0
comprised_client_idx:  range(0, 20)
read_dir:  ~/processed_data/CIFAR10_iid-True_numclients-20_backdoor-True_poisonedclientsportion-0.4_poisoneddataportion-0.5/
Number of GPUs available: 4
Using GPU: 1
global_model:  ResNet(
  (conv1): Conv2d(3, 64, kernel_size=(3, 3), stride=(1, 1), padding=(1, 1), bias=False)
  (bn1): BatchNorm2d(64, eps=1e-05, momentum=0.1, affine=True, track_running_stats=False)
  (layer1): Sequential(
    (0): BasicBlock(
      (conv1): Conv2d(64, 64, kernel_size=(3, 3), stride=(1, 1), padding=(1, 1), bias=False)
      (bn1): BatchNorm2d(64, eps=1e-05, momentum=0.1, affine=True, track_running_stats=False)
      (conv2): Conv2d(64, 64, kernel_size=(3, 3), stride=(1, 1), padding=(1, 1), bias=False)
      (bn2): BatchNorm2d(64, eps=1e-05, momentum=0.1, affine=True, track_running_stats=False)
      (shortcut): Sequential()
    )
  )
  (layer2): Sequential(
    (0): BasicBlock(
      (conv1): Conv2d(64, 128, kernel_size=(3, 3), stride=(2, 2), padding=(1, 1), bias=False)
      (bn1): BatchNorm2d(128, eps=1e-05, momentum=0.1, affine=True, track_running_stats=False)
      (conv2): Conv2d(128, 128, kernel_size=(3, 3), stride=(1, 1), padding=(1, 1), bias=False)
      (bn2): BatchNorm2d(128, eps=1e-05, momentum=0.1, affine=True, track_running_stats=False)
      (shortcut): Sequential(
        (0): Conv2d(64, 128, kernel_size=(1, 1), stride=(2, 2), bias=False)
        (1): BatchNorm2d(128, eps=1e-05, momentum=0.1, affine=True, track_running_stats=False)
      )
    )
  )
  (layer3): Sequential(
    (0): BasicBlock(
      (conv1): Conv2d(128, 256, kernel_size=(3, 3), stride=(2, 2), padding=(1, 1), bias=False)
      (bn1): BatchNorm2d(256, eps=1e-05, momentum=0.1, affine=True, track_running_stats=False)
      (conv2): Conv2d(256, 256, kernel_size=(3, 3), stride=(1, 1), padding=(1, 1), bias=False)
      (bn2): BatchNorm2d(256, eps=1e-05, momentum=0.1, affine=True, track_running_stats=False)
      (shortcut): Sequential(
        (0): Conv2d(128, 256, kernel_size=(1, 1), stride=(2, 2), bias=False)
        (1): BatchNorm2d(256, eps=1e-05, momentum=0.1, affine=True, track_running_stats=False)
      )
    )
  )
  (layer4): Sequential(
    (0): BasicBlock(
      (conv1): Conv2d(256, 512, kernel_size=(3, 3), stride=(2, 2), padding=(1, 1), bias=False)
      (bn1): BatchNorm2d(512, eps=1e-05, momentum=0.1, affine=True, track_running_stats=False)
      (conv2): Conv2d(512, 512, kernel_size=(3, 3), stride=(1, 1), padding=(1, 1), bias=False)
      (bn2): BatchNorm2d(512, eps=1e-05, momentum=0.1, affine=True, track_running_stats=False)
      (shortcut): Sequential(
        (0): Conv2d(256, 512, kernel_size=(1, 1), stride=(2, 2), bias=False)
        (1): BatchNorm2d(512, eps=1e-05, momentum=0.1, affine=True, track_running_stats=False)
      )
    )
  )
  (linear): Linear(in_features=512, out_features=10, bias=True)
)
Number of trainable parameters:  4903242
clients_images_list:  20
clients_images_list[0]:  (2500, 3, 32, 32) <class 'numpy.ndarray'>
clients_images_list[0][0] (3, 32, 32) <class 'numpy.ndarray'>
Client0 dataset size: 2500
Client1 dataset size: 2500
Client2 dataset size: 2500
Client3 dataset size: 2500
Client4 dataset size: 2500
Client5 dataset size: 2500
…
